model_parameters/bpinn.pt (torch, 124455 bytes, 30 tensors)

u_model.layers.0.weight_mu f4 [64, 6]
000000 02 71 ae b9 14 db 38 3e 24 43 ed bd da 33 41 bb
       -0.00033272064 0.18052322 -0.11585072 -0.0029480369
000010 de f1 f3 ba 4d 7f 14 3e 3d 14 66 3a b5 be 04 3f
       -0.0018611511 0.14501686 0.00087768194 0.51853496
000020 9a 84 15 ba 52 2c b3 be 27 60 e1 bc 0a dd 9d b8
       -0.0005703658 -0.3499475 -0.02751167 -7.527515e-05
000030 82 1d f9 be 46 26 b9 be 60 c8 0a be 9f fd f0 bd
       -0.48655325 -0.36162013 -0.13553 -0.117671244
000040 d8 2b 86 ba 34 45 01 3a 92 05 b4 bb ed be dd 3a
       -0.0010236455 0.00049312715 -0.005493828 0.0016917862
000050 b0 fc 49 3a 72 c8 36 3f a5 09 0c 3b e3 c0 bf 3a
       0.0007705195 0.71399605 0.0021368053 0.0014629628
000060 01 f6 64 be 97 37 2d 3a e6 b4 63 3e 31 38 ae bf
       -0.22359468 0.000660771 0.22236976 -1.3610898
000070 eb ab 46 ba 87 16 0d ba bd ca 21 c0 6f 99 20 3f
       -0.00075787184 -0.000538208 -2.5279992 0.6273412
000080 8a 5c c2 be 4b 1a b3 be 42 d3 6f be e9 af 03 3a
       -0.37961227 -0.34980997 -0.23420432 0.0005023466
000090 64 e9 00 be 07 61 9b 3e 5c df 8e ba 9e 66 11 bb
       -0.12589031 0.30347463 -0.0010900307 -0.0022186409
0000a0 35 6d fd bd 36 f9 f5 38 95 0d 01 3b 6e dc 3a be
       -0.12374345 0.000117289295 0.0019691933 -0.1824815
0000b0 12 9f 2f be 32 6d 07 bf ed b4 21 3e 3a 23 2b 3a
       -0.17150524 -0.52900994 0.15791674 0.00065283815
0000c0 ef 88 ba 38 f1 c2 99 b9 47 3b cd ba 59 7a a7 3a
       8.894677e-05 -0.00029327677 -0.0015657925 0.0012777551
0000d0 e4 f8 30 b9 ce 41 33 bc 0c 82 ef 38 76 0c b9 bd
       -0.00016877387 -0.010940982 0.00011420631 -0.0903558
0000e0 b8 4a e2 b8 b8 6b 57 bf dc 28 13 bd bc d4 2f be
       -0.00010790437 -0.8414874 -0.03592764 -0.17170995
0000f0 34 2b e6 bb 12 6b 01 3b c7 a7 98 be 61 cd d2 3b
       -0.007024193 0.0019747657 -0.29815504 0.0064331745
000100 20 60 02 b9 c2 c7 a3 39 f7 b2 4d 3a 94 dd 79 3e
       -0.00012433575 0.00031238614 0.0007846797 0.24400932
000110 fe bb 46 3e 61 48 bf 3f 69 4b ba bd 4c 94 67 ba
       0.19407651 1.4943963 -0.090964146 -0.00088340486
000120 cb 32 75 3e cd 5e 6b 3e 5f b7 84 3e a9 79 1e 3e
       0.23945157 0.22985382 0.2592115 0.15476097
000130 a7 b4 e1 3c 27 99 a6 bd 2b 44 3e 3e 57 2a 1d bf
       0.027551962 -0.0813468 0.18580692 -0.6139273
000140 67 3d ab be 36 96 17 3f bf 6b f4 3d a7 48 bd ba
       -0.33445284 0.5921358 0.119346134 -0.0014441208
000150 66 77 d6 b9 60 74 ba 39 aa 80 b1 bd 69 0c 04 bc
       -0.0004090622 0.0003556339 -0.08667119 -0.008059599
000160 f7 17 2f 3a d5 63 d2 3c d1 37 3f be ed e4 46 3e
       0.0006679291 0.02568237 -0.18673636 0.19423266
000170 4a 5b c2 b8 6c fc bb 3e a2 c0 3f be 91 4c 83 ba
       -9.267645e-05 0.3671602 -0.18725827 -0.0010017325
000180 ed 79 11 40 c5 ca e5 ba 3a b8 72 be ab 59 93 3b
       2.2730668 -0.0017531744 -0.2370309 0.0044967732
000190 dc 2b 17 3e 50 09 d4 38 ca db a0 3a c3 26 67 3a
       0.14762825 0.00010110682 0.0012272533 0.00088177266
0001a0 03 cd 93 be 58 89 a0 38 00 1b 2e 38 70 54 7a 3a
       -0.2886735 7.654977e-05 4.150998e-05 0.00095493253
0001b0 6a fa bd bc bc aa 07 3e fd 36 25 3c a2 b2 2d 3d
       -0.023190696 0.13248724 0.010083911 0.042406686
0001c0 d0 dd d8 bd a3 37 40 3b 24 24 5e 3a f7 48 1b be
       -0.105891824 0.0029330037 0.00084740133 -0.15164553
0001d0 63 5a 91 3e 5c 71 60 38 5e e0 46 3e fb 70 45 be
       0.28389272 5.3511336e-05 0.19421527 -0.1928138
0001e0 99 3c cd bf 55 06 c3 b8 b5 72 b5 be 1a ae 84 3c
       -1.6034118 -9.299504e-05 -0.35439077 0.0161963
0001f0 62 0b 68 be 59 33 4e bf cf 15 b1 39 56 7b c8 bd
       -0.22660592 -0.805471 0.0003377632 -0.097891495
000200 f0 05 a8 bd 0f 94 b4 be 03 ba 8d 3a 5a 5d 1f 3a
       -0.082042575 -0.3526921 0.0010812882 0.0006079279
000210 f8 ce 85 ba 0e c9 ce be d6 7f 0d 3e 6c 7f 30 be
       -0.0010208776 -0.40387768 0.13818297 -0.17236108
000220 de 99 b2 ba fe ed e3 39 88 c6 01 3a 9c 66 fb 38
       -0.0013626178 0.00043474132 0.0004950543 0.00011987725
000230 23 5b b0 bb ab 33 af 3e 84 87 ab 3d dd 7e 3d 3a
       -0.005381958 0.34219107 0.08375457 0.0007228682
000240 73 3f 19 be ae 1b 35 bf f4 f5 20 3f c9 13 bb 3e
       -0.1496561 -0.7074536 0.62875295 0.36538532
000250 86 42 1f bd d1 c7 b7 3e e6 0b 00 bb 77 2f c1 be
       -0.0388818 0.35894635 -0.0019538342 -0.37731525
000260 59 60 42 be eb 6f 7c ba 6f 5d 65 3d bd 2e 23 3b
       -0.18982066 -0.0009629714 0.05599731 0.0024899684
000270 a8 5d 36 39 52 f8 d2 be 39 8e c2 3a 31 7d d7 ba
       0.00017391762 -0.41205078 0.0014843411 -0.0016440508
000280 4b a5 35 ba 09 ff ba 3a 58 8b ce bd dc 50 c1 bb
       -0.00069292326 0.001426668 -0.100851715 -0.0058995318
000290 f7 83 1b bb dc b8 18 b8 f1 96 c2 3a 7c f6 0e ba
       -0.002372978 -3.6411788e-05 0.001484601 -0.0005453599
0002a0 2a c5 36 3a c0 cb c7 b9 a1 0a 8e 3e dc 75 99 b9
       0.0006972129 -0.00038108043 0.27742484 -0.00029270246
0002b0 59 9a 08 3e 56 e1 65 38 49 b5 0e c0 9c 9c eb 3e
       0.13340129 5.4807715e-05 -2.2298148 0.4601792
0002c0 bd f8 63 be f7 ab 9c be d5 9e 64 3e 4d 83 b8 39
       -0.22262855 -0.3059995 0.22326215 0.00035193042
0002d0 ae 7c 2e bb 84 67 a8 be 82 eb f1 3e 2c 52 41 38
       -0.0026624608 -0.32891476 0.4724999 4.6091314e-05
0002e0 c8 7d 17 39 18 3d 82 ba 9e 3f 84 3e d0 79 0c be
       0.0001444734 -0.000993642 0.25829786 -0.13718343
0002f0 2c 57 c6 be 19 83 03 bb e7 a7 e0 3d 80 c3 c0 3e
       -0.38738382 -0.0020067154 0.10969525 0.37649155
000300 89 22 d0 bd 12 ac a7 ba 62 9f ab be 7b f7 7f be
       -0.10162837 -0.001279237 -0.33520037 -0.2499675
000310 e4 93 9f bd 03 f1 56 3e d7 64 18 bd 5a 0f bb 3a
       -0.0779188 0.20990376 -0.037205543 0.0014271543
000320 42 37 3d 38 cc 54 71 3b 8c 44 d4 b9 b7 f7 d8 3a
       4.5112574e-05 0.0036824225 -0.00040486862 0.0016553317
000330 1a 35 cf 3a 14 7c 9b bd 33 2c b8 be f6 53 0f 3f
       0.0015808672 -0.075920254 -0.3597122 0.5598749
000340 44 d8 46 b9 bf 95 d1 3d 88 56 f8 b9 11 9a 27 3b
       -0.00018963317 0.1023364 -0.00047366717 0.0025574008
000350 e5 8b 7e 3e ac 90 23 38 f1 72 dd b9 7c 0f 0e ba
       0.24858053 3.8996965e-05 -0.00042238043 -0.00054191775
000360 65 0d 03 be ae 27 10 be b1 b2 6f 3e 4a e2 76 3a
       -0.12798078 -0.14077637 0.23408009 0.0009417875
000370 2e d9 20 ba 00 38 89 3e 3b cb 5c be 10 3f bd be
       -0.0006135878 0.26800537 -0.21561901 -0.36962175
000380 c9 3f 0c bf 89 45 e1 ba 2a 3f bc bd 28 52 af be
       -0.5478483 -0.0017186861 -0.09191735 -0.34242368
000390 08 2e 3c be 34 76 21 be 25 b0 41 be 10 a1 de 3e
       -0.18376935 -0.15767747 -0.1891485 0.43482256
0003a0 f4 5f 31 bd 37 24 7b b9 49 21 84 bb 40 6f fe 39
       -0.0433044 -0.00023950716 -0.004032288 0.00048529543
0003b0 fe 6b 95 b9 e5 ee 35 3f 22 62 9d 3a 18 d6 e4 3d
       -0.00028499955 0.7106765 0.0012007395 0.11173648
0003c0 9c 90 d0 b9 90 4f a9 3e b0 7c 54 be e8 33 68 3a
       -0.00039780594 0.33068514 -0.2075069 0.0008857832
0003d0 d7 c0 de bd 25 30 7c 3a 92 e0 f7 ba b4 32 ad be
       -0.10876625 0.0009620211 -0.0018911532 -0.33827746
0003e0 00 b7 db 3d d3 44 30 3a 0b 68 85 b9 de 83 b0 ba
       0.10728264 0.0006724123 -0.00025445255 -0.0013467034
0003f0 06 a9 d3 b8 5c 62 b0 3a 45 1b 30 bb 90 5f ad b9
       -0.00010092747 0.0013457048 -0.0026871723 -0.0003306833

u_model.layers.0.weight_rho f4 [64, 6]
000000 12 df bf c0 d7 fa 7b c0 99 98 7c c0 3c c5 b6 c0
       -5.9959803 -3.937185 -3.9468138 -5.7115765
000010 c5 fd b7 c0 c6 46 6f c0 ea 5b bf c0 9e 5e 9a c0
       -5.7497277 -3.7386947 -5.97997 -4.82405
000020 32 64 bd c0 4f 73 73 c0 60 f4 ad c0 17 6e be c0
       -5.918481 -3.8039129 -5.436081 -5.9509387
000030 d2 b2 81 c0 d8 a4 9c c0 fd 04 9c c0 20 ba 63 c0
       -4.0530787 -4.8951225 -4.875609 -3.5582352
000040 51 73 b4 c0 cf 1c c0 c0 ce 2f 74 c0 06 d4 8d c0
       -5.6390767 -6.0035167 -3.8154178 -4.432132
000050 bb ab b4 c0 8b 50 3d c0 c3 ae a5 c0 3e 7a 8e c0
       -5.645963 -2.958041 -5.177583 -4.452422
000060 94 c4 87 c0 0a ba b8 c0 c2 85 95 c0 87 73 4f c0
       -4.2427464 -5.77271 -4.672578 -3.2414262
000070 84 df ab c0 bf 73 bf c0 ab 5d 68 c0 bc 7f ab c0
       -5.3710346 -5.982879 -3.630717 -5.3593426
000080 02 b6 a0 c0 70 66 84 c0 81 18 ad c0 66 0a c0 c0
       -5.0222178 -4.1375046 -5.409241 -6.0012693
000090 fe cf 74 c0 54 0e 8c c0 ae 7a bc c0 82 cf 6b c0
       -3.8251948 -4.376749 -5.8899755 -3.6845403
0000a0 a9 71 8e c0 82 a7 be c0 e4 f2 bf c0 aa 30 82 c0
       -4.4513745 -5.9579477 -5.9983997 -4.0684404
0000b0 25 07 78 c0 eb bd 40 c0 bc 13 96 c0 04 ed be c0
       -3.875436 -3.0115917 -4.689909 -5.9664326
0000c0 f2 72 be c0 d0 4c bc c0 9d 12 bf c0 da fe bc c0
       -5.9515314 -5.8843765 -5.971022 -5.90611
0000d0 55 c3 b5 c0 58 53 6d c0 fb 43 c0 c0 e6 65 85 c0
       -5.6800942 -3.708212 -6.0082984 -4.168689
0000e0 a1 00 bf c0 40 cd 46 c0 04 68 95 c0 08 31 7b c0
       -5.968827 -3.1062775 -4.668947 -3.9248676
0000f0 db 98 83 c0 77 f2 81 c0 93 3d 8f c0 53 15 77 c0
       -4.112409 -4.0608478 -4.4762664 -3.8606765
000100 77 3a b4 c0 5e 51 bf c0 e7 fd b4 c0 23 1a 91 c0
       -5.632137 -5.9786825 -5.655994 -4.5344405
000110 4d 19 88 c0 66 a2 5c c0 82 b8 a2 c0 79 75 c0 c0
       -4.2530885 -3.447412 -5.085023 -6.01434
000120 d5 98 85 c0 db 6d 9d c0 d9 17 a0 c0 3b f5 7a c0
       -4.1749063 -4.91966 -5.002911 -3.9212177
000130 97 5b ab c0 54 62 8f c0 6f 90 8a c0 6a 6a a6 c0
       -5.3549304 -4.480753 -4.330131 -5.20049
000140 a9 64 9b c0 97 b1 73 c0 b5 a7 a3 c0 25 10 c1 c0
       -4.8560376 -3.8077142 -5.114222 -6.033221
000150 dc de be c0 36 ae c0 c0 61 ca 81 c0 81 36 80 c0
       -5.9647045 -6.021266 -4.0559545 -4.0066533
000160 34 ae b0 c0 e5 21 68 c0 64 20 6f c0 16 af 86 c0
       -5.521265 -3.6270688 -3.736352 -4.208873
000170 29 64 a1 c0 d5 88 4b c0 b4 c2 99 c0 01 77 bf c0
       -5.0434766 -3.1802266 -4.8050175 -5.983277
000180 06 3e 44 c0 8e 9d b3 c0 fb 6f 9b c0 8f ca 6c c0
       -3.0662856 -5.6129827 -4.8574195 -3.6998632
000190 fa 74 a2 c0 27 2f bf c0 4d c6 bf c0 a8 f5 b5 c0
       -5.0767794 -5.974506 -5.9929566 -5.6862373
0001a0 8e 0a 8a c0 cd 7a bf c0 80 b3 b9 c0 ae 76 bf c0
       -4.3137884 -5.9837403 -5.8031616 -5.9832373
0001b0 44 a4 40 c0 0a 69 7a c0 17 b5 80 c0 ff f1 38 c0
       -3.010026 -3.912661 -4.0221057 -2.8897703
0001c0 cc 9d 8a c0 a2 bc 50 c0 85 b7 be c0 a7 4b 90 c0
       -4.3317623 -3.2615132 -5.9599023 -4.509235
0001d0 ee ae 98 c0 21 f6 bd c0 0c 6a 9a c0 1c 24 84 c0
       -4.7713537 -5.936295 -4.825445 -4.129408
0001e0 d2 c4 29 c0 7c 47 bf c0 67 9b 86 c0 23 d8 6b c0
       -2.652638 -5.977476 -4.20647 -3.685067
0001f0 aa dc 92 c0 1a 8e 5c c0 d1 27 ba c0 6d 71 82 c0
       -4.5894365 -3.4461732 -5.8173604 -4.076346
000200 7e 51 84 c0 af 0b 57 c0 5c 0a b1 c0 c0 19 bf c0
       -4.134948 -3.360088 -5.5325146 -5.9718933
000210 9f 95 6e c0 b7 d2 91 c0 c7 22 8e c0 94 82 5d c0
       -3.7278821 -4.556972 -4.4417453 -3.4610949
000220 d8 7d b7 c0 3e 3a bf c0 ac c9 51 c0 44 b3 b6 c0
       -5.734112 -5.9758596 -3.277934 -5.709383
000230 63 54 80 c0 aa 5e 33 c0 30 00 84 c0 1f 55 bf c0
       -4.010301 -2.8026528 -4.125023 -5.9791408
000240 5a 14 8e c0 92 72 a2 c0 3d ae 98 c0 4a 44 75 c0
       -4.4399843 -5.0764856 -4.7712693 -3.832293
000250 73 07 b0 c0 f4 16 95 c0 ce aa a2 c0 53 90 93 c0
       -5.5009093 -4.659052 -5.08335 -4.6113677
000260 f4 cf 94 c0 48 8f bf c0 5d b8 a2 c0 74 d3 ae c0
       -4.650385 -5.9862404 -5.0850053 -5.463312
000270 5f 50 bf c0 38 5f 8a c0 41 0f be c0 f8 8d b7 c0
       -5.978561 -4.3241234 -5.939362 -5.73608
000280 60 97 b9 c0 d9 3e c0 c0 8a 53 53 c0 c9 ca 88 c0
       -5.7997284 -6.007672 -3.3019738 -4.274754
000290 97 2b 9d c0 fc 74 b9 c0 a6 80 9d c0 78 44 bf c0
       -4.911571 -5.7955303 -4.921954 -5.977108
0002a0 46 8f ba c0 b3 6b bb c0 e0 9e 8d c0 80 77 c0 c0
       -5.8299894 -5.856897 -4.425644 -6.0145874
0002b0 e6 e4 9e c0 87 4f bf c0 cc a8 62 c0 6f 14 a9 c0
       -4.9654417 -5.978458 -3.5415525 -5.2837443
0002c0 ce 15 aa c0 ad e2 88 c0 46 b8 ad c0 81 9a b7 c0
       -5.3151617 -4.2776704 -5.4287443 -5.7376103
0002d0 89 33 c1 c0 17 1c a0 c0 13 06 a4 c0 84 3d ac c0
       -6.037541 -5.003429 -5.1257415 -5.382509
0002e0 5b b6 b9 c0 9e d0 c0 c0 e5 bc 93 c0 13 bf 9a c0
       -5.80351 -6.025466 -4.6168084 -4.8358245
0002f0 7e 6c 9a c0 4e b9 bb c0 e4 03 ae c0 fd 2e 9c c0
       -4.8257437 -5.86637 -5.437975 -4.880736
000300 23 35 89 c0 70 8b be c0 80 9f 93 c0 93 6d 69 c0
       -4.2877364 -5.954521 -4.61322 -3.6473129
000310 e2 a3 a4 c0 75 ee 8a c0 19 48 3a c0 a1 a1 95 c0
       -5.145005 -4.3416085 -2.9106505 -4.67598
000320 39 d9 bd c0 f5 00 4b c0 c5 7b 95 c0 bd 89 65 c0
       -5.9327664 -3.1719334 -4.6713586 -3.5865319
000330 65 51 bb c0 6c 77 91 c0 79 6a 9a c0 28 04 74 c0
       -5.853686 -4.545828 -4.825497 -3.8127537
000340 4c 98 bc c0 37 85 90 c0 fb 5d be c0 d2 bd 97 c0
       -5.893591 -4.5162616 -5.948972 -4.7419214
000350 a5 e1 91 c0 6e 51 7b c0 29 46 9c c0 41 7a c0 c0
       -4.5587945 -3.926845 -4.8835645 -6.0149236
000360 bf 27 72 c0 44 d9 97 c0 7f 79 9b c0 52 1d 80 c0
       -3.783676 -4.7452717 -4.858581 -4.003579
000370 b5 cb b8 c0 6a b8 85 c0 12 92 93 c0 53 bb a3 c0
       -5.7748666 -4.1787615 -4.611581 -5.1166167
000380 7a d6 9e c0 cb b9 ab c0 07 f4 af c0 c3 31 9c c0
       -4.963681 -5.36643 -5.4985385 -4.8810744
000390 d8 29 64 c0 de 24 87 c0 14 69 89 c0 9e 95 44 c0
       -3.565054 -4.2232504 -4.294077 -3.071632
0003a0 4f c7 90 c0 da 54 ba c0 3a 39 5d c0 8b 4d ba c0
       -4.5243297 -5.822858 -3.4566178 -5.8219657
0003b0 54 cd be c0 92 53 2e c0 fb 6b b3 c0 4f 4e 64 c0
       -5.9625645 -2.7238507 -5.606931 -3.5672796
0003c0 8a 00 b7 c0 6f 81 84 c0 f3 1c 88 c0 b6 ff be c0
       -5.718816 -4.1408 -4.253534 -5.9687147
0003d0 35 7c 96 c0 04 c9 bf c0 20 a8 7e c0 92 40 87 c0
       -4.702662 -5.993288 -3.9790115 -4.226632
0003e0 3c e0 8c c0 9b 6a bf c0 fb c7 a8 c0 9b c5 bf c0
       -4.4023724 -5.9817634 -5.2744117 -5.9928718
0003f0 b2 11 bf c0 63 be bf c0 9d 51 b4 c0 84 f0 bf c0
       -5.97091 -5.9919906 -5.6349626 -5.99811

u_model.layers.0.bias_mu f4 [64]
000000 ed d6 e5 bd b7 7a b4 bd 23 66 05 3e 1f 15 b9 bd
       -0.112226345 -0.088124685 0.13027243 -0.09037232
000010 50 5f cf b7 07 e7 68 ba f6 6d 92 39 10 aa f2 ba
       -2.4720706e-05 -0.00088845234 0.00027929217 -0.0018513817
000020 77 4a 49 3d eb 0a c6 39 76 4a 75 3e a4 02 b1 be
       0.04914328 0.00037773637 0.23954186 -0.34572327
000030 4f 50 8c be 28 83 71 3e 57 ef c9 ba 5d 54 44 b9
       -0.2740502 0.23585188 -0.0015406412 -0.00018723444
000040 8a 98 7c 39 35 41 c2 3a 07 ff 7a 39 d5 aa 77 be
       0.00024089418 0.0014820459 0.00023936863 -0.24186261
000050 53 80 99 38 c4 3a b1 3d 2c be ae 3d 6f 22 8c 3d
       7.319511e-05 0.08653787 0.08532366 0.06842505
000060 3c 5c 49 ba 22 a9 1f 3e 6f 04 52 3e 71 d2 9c b9
       -0.00076812855 0.15591863 0.20509504 -0.0002991143
000070 94 50 4f be d2 b5 d7 be eb ad 53 be a6 d4 2b ba
       -0.20245582 -0.42130905 -0.20671813 -0.00065548194
000080 4a bc 81 3e 99 49 02 39 42 21 7f 3e 82 77 49 be
       0.25338966 0.00012425183 0.2491503 -0.19674495
000090 7d 32 d5 b9 08 be a0 3e 6a a8 5e 3e f2 6f 8c ba
       -0.00040664143 0.31394982 0.21743932 -0.0010714515
0000a0 b1 27 09 bb 38 dc 46 3d 79 92 57 3a aa ef 5d 3a
       -0.00209282 0.04854986 0.0008223425 0.00084661937
0000b0 89 f6 7c 3e 38 86 e2 3d a1 84 42 3e 44 1c a0 3a
       0.2470342 0.110607564 0.18995906 0.0012215455
0000c0 c8 eb 2a 38 ae 0f 85 3d b8 35 a1 3a 61 b4 4d be
       4.0750747e-05 0.06497131 0.0012299335 -0.2008834
0000d0 4c fb 58 3e 40 40 74 3b 43 d4 9a 3a c2 04 a0 bd
       0.21189612 0.0037269741 0.0011812526 -0.078134075
0000e0 ea 7c 25 be 1b 27 ee ba e1 9c 1b bd e8 4f 10 be
       -0.16160932 -0.0018169613 -0.03799141 -0.14092982
0000f0 47 3c 85 3e 86 e8 c6 3e a0 ce 53 3e ad d8 ba bb
       0.2602255 0.38849276 0.2068429 -0.0057020993

u_model.layers.0.bias_rho f4 [64]
000000 6d 7a 90 c0 88 d3 a8 c0 9e 65 af c0 ae c3 8c c0
       -4.5149446 -5.2758217 -5.4811544 -4.3988867
000010 b3 be b0 c0 66 6e ba c0 3f a4 b9 c0 5c 4b ac c0
       -5.5232787 -5.8259764 -5.8012996 -5.384199
000020 55 cc 91 c0 0a 32 a8 c0 87 79 97 c0 9d 9e 9a c0
       -4.556193 -5.2561083 -4.733585 -4.831862
000030 6d 2a a7 c0 97 7d ae c0 87 00 9c c0 cd 33 ad c0
       -5.223929 -5.452831 -4.8750644 -5.4125733
000040 f3 8a b4 c0 01 c4 b1 c0 e6 91 b5 c0 2a 3e 9c c0
       -5.6419616 -5.5551763 -5.67406 -4.8825884
000050 5b ce b4 c0 09 3b 9e c0 0a 6f 9f c0 17 46 91 c0
       -5.65019 -4.9447064 -4.9823046 -4.539806
000060 f2 16 b4 c0 fb f0 a1 c0 b0 e0 90 c0 c3 65 bb c0
       -5.627801 -5.0606666 -4.5274277 -5.856172
000070 fd 1d 9a c0 86 00 ad c0 99 4f ad c0 db 06 bb c0
       -4.8161607 -5.406314 -5.4159665 -5.844587
000080 fc 7f 9e c0 6f 13 bc c0 c2 53 a5 c0 d5 40 9b c0
       -4.953123 -5.8773723 -5.1664743 -4.851664
000090 f6 ea b7 c0 c3 d8 b3 c0 72 66 90 c0 b0 fa b6 c0
       -5.7474318 -5.62021 -4.5125055 -5.7181015
0000a0 62 8a bb c0 de 1c 9d c0 68 87 ba c0 e6 55 a7 c0
       -5.8606424 -4.909774 -5.829029 -5.2292356
0000b0 c9 62 8c c0 1f 18 90 c0 ba dc aa c0 4f c4 95 c0
       -4.3870587 -4.5029445 -5.339444 -4.6802135
0000c0 90 68 b4 c0 3b f2 9f c0 14 99 bc c0 40 74 90 c0
       -5.637764 -4.998319 -5.8936863 -4.5141907
0000d0 ad 96 9f c0 7d 9c 9e c0 ef 64 9e c0 f0 dd a9 c0
       -4.987143 -4.9566026 -4.949821 -5.308342
0000e0 36 d4 a2 c0 d9 af a9 c0 d8 89 af c0 ac 32 91 c0
       -5.0884047 -5.302716 -5.4855766 -4.5374355
0000f0 12 a9 a7 c0 92 f7 9d c0 da 0c a8 c0 5a c3 8d c0
       -5.2393885 -4.936471 -5.251569 -4.4300966

u_model.layers.1.weight_mu f4 [64, 64]
000000 e7 19 1a be cf 8e 69 ba 63 a8 a0 bc c8 92 02 bb
       -0.15048943 -0.0008909525 -0.019611543 -0.0019923914
000010 97 47 2c 3e 89 74 75 3d 32 60 8f 3d 3b ce 0f bd
       0.16824184 0.05992559 0.0700077 -0.035108786
000020 07 b8 b4 bc 0a 48 25 ba c8 e0 9e 3c 4e 17 f4 3a
       -0.022060407 -0.0006304985 0.019394293 0.0018622668
000030 44 9e c0 ba ce 01 33 3a 07 00 b7 3c 45 6d 6b 39
       -0.0014695604 0.0006828577 0.02233888 0.00022452053
000040 66 b2 a9 3a 4c 72 b7 ba b4 2d 2a 3d 01 70 5e bd
       0.0012946844 -0.0013995855 0.041547492 -0.054306034
000050 82 33 e3 bd dd 9b bb bd 33 0b d0 bb 2b 01 0c 3c
       -0.11093809 -0.09160588 -0.0063489913 0.0085452
000060 aa 44 fd bc cf 73 2f bd 44 43 37 bd 64 18 67 bb
       -0.03091653 -0.042835053 -0.044741884 -0.003526234
000070 85 9c 0a 3d 14 ea 92 bd 2a 2a cd 3a 39 0b e0 ba
       0.033840675 -0.07173553 0.0015652825 -0.0017093188
000080 4c ed da 3d 6a e5 0c 3c 8e 01 9d bd f6 37 1a be
       0.10689792 0.008599618 -0.07666312 -0.1506041
000090 22 99 49 be 94 11 0d 3d 68 2c 0f 3e a6 a0 ee bc
       -0.19687322 0.034440592 0.13981783 -0.029129338
0000a0 1e 7e 20 bd c7 78 19 bc b3 48 d9 3c 91 87 8f bd
       -0.039182775 -0.0093671745 0.026523924 -0.07008279
0000b0 1f 6f 6d 3c cb 79 1f bd 75 1d ab 39 7a 2e 0d 39
       0.014491825 -0.03893451 0.0003263761 0.00013464122
0000c0 fa 69 43 3b ce 92 82 ba 63 1e 56 3c 2c 10 c0 bd
       0.0029817806 -0.0009961964 0.013068768 -0.093780845
0000d0 e0 7d 16 bd 88 9b 75 3d 2c e0 a1 3d 2d e1 45 3d
       -0.036741138 0.05996278 0.079040855 0.048310447
0000e0 a1 e2 0e bd 4b 41 e4 3b de a1 89 bd fe fe 04 3d
       -0.0348841 0.0069657913 -0.06720327 0.032469742
0000f0 68 89 2b 3a aa 72 20 3d 48 cd c7 bd f0 fc 29 b8
       0.00065436075 0.039171852 -0.09755951 -4.0528306e-05
000100 f5 de 71 3d 31 28 eb ba 3f c2 7a 3c 87 97 d7 bd
       0.05905052 -0.0017941055 0.015305101 -0.105269484
000110 2d 21 bf bd 16 e1 36 ba ba 14 bd 3c cf a8 a7 ba
       -0.093325 -0.00069762894 0.023081172 -0.0012791398
000120 1e 96 d5 39 77 8d 04 3e bc 38 4c ba 2a da df bc
       0.00040738372 0.1294459 -0.00077904365 -0.027325708
000130 2e 2a a0 3d f2 2e 7b 3c 40 3c 3f 38 2c dc fe ba
       0.07820545 0.015331017 4.559406e-05 -0.0019444278
000140 86 f7 8b bc a4 24 e2 3d 08 14 32 bd 59 16 e8 3a
       -0.017085802 0.11042145 -0.043476135 0.0017706855
000150 9a 3a fc b9 74 bb 35 be a2 c8 42 3b ce 8d 18 be
       -0.00048108847 -0.17747289 0.0029721637 -0.14897844
000160 e3 77 bd 3a 29 b0 11 be 55 3c 1e 3d 47 a6 03 3a
       0.0014455285 -0.14227356 0.038631756 0.00050220307
000170 6d 9d 42 ba 44 c9 06 3c c9 69 ca 3a 81 37 15 3d
       -0.0007423971 0.008226696 0.0015442903 0.036429886
000180 0c 25 15 bd 8d 6d f3 3a 54 c6 62 bd bc 45 57 ba
       -0.036412284 0.0018572077 -0.05536492 -0.00082119904
000190 f3 3b de 3a 90 aa d6 3b a3 9b a6 39 b4 af 19 3b
       0.0016955122 0.0065510944 0.00031777946 0.0023450674
0001a0 b2 13 8a ba 48 5c 2d bd e1 8c a3 3a b6 b6 86 bc
       -0.0010534434 -0.042324334 0.0012477898 -0.016444545
0001b0 05 ae f1 bc ba f7 f3 3b 47 68 03 3d b1 de 1c bd
       -0.029501924 0.007445303 0.03208187 -0.038298313
0001c0 29 19 e7 b9 bb 3f 79 bd 33 60 d6 3c e8 3a 71 b7
       -0.000440785 -0.060851794 0.026168918 -1.4378435e-05
0001d0 f8 2a 57 bc d7 02 55 3d bd e9 91 ba b5 69 d6 3d
       -0.013132803 0.05200466 -0.0011132282 0.10469381
0001e0 05 e6 29 bd 6a d3 17 3a af d4 0a bd da 2e ab bb
       -0.04147913 0.0005791696 -0.033894237 -0.005224091
0001f0 46 ce 20 3d 2e cf 30 3b 56 1d 74 bd 34 21 0f 3d
       0.039259218 0.0026978957 -0.05959829 0.034943774
000200 d9 3c 04 ba d1 e3 28 be bd de 8a b9 9d a0 28 ba
       -0.00050444674 -0.16493155 -0.00026487364 -0.00064326247
000210 5c 0f 45 bf 71 7f 1c 3e 40 cb 84 3e 5c c5 cf 3a
       -0.7697656 0.1528299 0.25936317 0.0015851664
000220 16 ec 7b ba 0a 41 9b be 63 29 bf 3e 73 ae 9e 38
       -0.00096100697 -0.30323058 0.37336263 7.566521e-05
000230 cc ed be be 08 81 05 ba 45 80 a0 bd 83 24 b1 3a
       -0.372908 -0.00050927745 -0.078369655 0.001351491
000240 6a da f8 3d 6b 8b 36 3e d7 71 34 3a c2 b8 d5 be
       0.12151034 0.17826621 0.00068834185 -0.41742522
000250 68 86 80 3d aa 9e b7 ba 8b 82 52 3b c4 26 7f 3e
       0.06275636 -0.0014009078 0.0032121267 0.24917132
000260 7d 71 0c bf 45 ef 73 3e 54 a8 f9 3b 51 af 1b be
       -0.5486067 0.23821743 0.007618943 -0.15203597
000270 06 d6 1e 3b 16 02 5a 3d 01 0c 6a bf c0 88 46 36
       0.0024236455 0.053224646 -0.91424567 2.9583898e-06
000280 b2 e8 96 3e fe b5 27 ba 22 17 80 3f 1c af 09 bf
       0.29474407 -0.00063976634 1.000706 -0.5378282
000290 14 6a 23 be 65 31 b4 3e d3 dd e9 3e 41 91 c5 3e
       -0.15958434 0.35193935 0.4567705 0.38587382
0002a0 c4 f2 0b ba d9 5c 06 be 1f 39 eb bd da cf 07 be
       -0.0005338604 -0.13121356 -0.11485504 -0.13262883
0002b0 5a 24 b1 3e 43 b8 9f 3e b6 8c 3d 3a 5a 9e dd 39
       0.34598047 0.31195268 0.00072307454 0.00042270386
0002c0 e5 38 e3 3e bd 77 e8 bd 0a 80 0a 3f 2b 43 10 bf
       0.44379345 -0.11350963 0.5410162 -0.5635249
0002d0 c4 27 11 be 76 da 22 be 57 85 e6 3d 1d 0d f4 ba
       -0.14175326 -0.15903649 0.11255901 -0.0018619631
0002e0 56 f8 97 3d be 71 58 ba 0b 76 ee 3e ba 2c d6 bd
       0.07420413 -0.0008256695 0.46574435 -0.1045775
0002f0 2a 9c 13 3f 6f ad c4 3e d2 9f d2 3e 60 97 6d b8
       0.5766016 0.3841357 0.41137558 -5.6646182e-05
000300 42 43 2e b9 09 3c 05 3c 7f 56 8d 3c 9f 2c dc bc
       -0.00016618989 0.008131989 0.017253159 -0.026876746
000310 86 85 48 ba de 52 0e 3d 45 f2 84 3d a9 6e 16 b9
       -0.0007649291 0.034746997 0.06491522 -0.00014346339
000320 d8 18 bf ba b7 4d 19 be 54 9c c1 39 71 3f a6 b9
       -0.0014579548 -0.14971052 0.00036928302 -0.00031709255
000330 ea 79 fe ba 41 dd a6 39 cf e1 95 3d b3 49 38 3e
       -0.0019414995 0.00031826834 0.0731846 0.17996864
000340 de 95 09 3d 5b 06 68 3d 76 1f 89 3c 64 53 04 bd
       0.03359019 0.056646686 0.016738635 -0.03230609
000350 03 a5 9d ba c7 c6 cf 3a 7e 40 8a bc 4a 1f 5f be
       -0.0012027327 0.0015852087 -0.016876455 -0.2178928
000360 d8 53 d7 3a 3c fa ec b9 a5 26 34 3c 2b ec c9 bd
       0.0016428186 -0.00045199867 0.010995542 -0.098594986
000370 84 41 92 b9 13 c6 84 bd ee a5 15 3d 34 c0 15 3c
       -0.00027896103 -0.06483092 0.036535196 0.009140063
000380 9f 8f 28 3a 27 6e ac bd d5 34 bd bc f2 a9 84 ba
       0.00064300926 -0.084194474 -0.023096481 -0.0010121448
000390 78 cb c1 3b 60 69 e7 3a 68 f0 dd bd 43 89 da bc
       0.005914148 0.0017655306 -0.108368695 -0.02667678
0003a0 5c 1a 3d 3a b8 2d 27 bd 2c bd 3f bd cf 6b 1d 3c
       0.00072137057 -0.040815085 -0.046811268 0.009608223
0003b0 75 96 4e ba b7 61 e7 3c 45 9a 8e ba 9e eb b5 bb
       -0.0007880696 0.028244836 -0.0010879716 -0.0055517694
0003c0 be e9 3e 3b a5 e3 b0 39 fa 87 01 bd 79 ba c1 bd
       0.002913102 0.00033738944 -0.031623818 -0.09459395
0003d0 e1 be 02 3b cf ef ba bc 4d 72 34 bd 68 fd ef 3a
       0.0019950198 -0.022819428 -0.04405432 0.0018309774
0003e0 92 fe 18 3c 7f c1 c9 bd f0 37 87 3a ab 09 63 bd
       0.009338038 -0.098513596 0.0010316353 -0.055429142
0003f0 d4 44 f9 3d bd 73 34 be a0 f9 39 3a a0 47 7c bd
       0.12171331 -0.17622276 0.0007094387 -0.061591744

u_model.layers.1.weight_rho f4 [64, 64]
000000 bf 76 fb bf d9 03 bf c0 3e 9c 36 c0 d5 7f bf c0
       -1.9645613 -5.9692197 -2.8532863 -5.9843545
000010 81 66 0c c0 00 46 2a c0 83 e9 03 c0 4e eb 0d c0
       -2.1937563 -2.6605225 -2.0611274 -2.2174869
000020 ba 47 0e c0 3a 4e be c0 6a cd f2 bf 2e d5 13 c0
       -2.2231278 -5.947049 -1.8968937 -2.3098865
000030 07 4f bf c0 fb 51 48 c0 16 67 d1 bf a3 78 be c0
       -5.978397 -3.1300037 -1.6359584 -5.952226
000040 b2 2b bf c0 59 52 ad c0 a9 6c 00 c0 c1 21 11 c0
       -5.974084 -5.416302 -2.006632 -2.2676852
000050 37 41 28 c0 ec e7 15 c0 ed 22 37 c0 7e 5f 7a c0
       -2.6289804 -2.3422804 -2.8615067 -3.9120784
000060 7c aa 21 c0 6a 64 1b c0 16 57 0d c0 93 1d 24 c0
       -2.5260305 -2.4280038 -2.2084403 -2.564305
000070 63 bd 05 c0 5d f4 1d c0 da 8a be c0 3a d4 1c c0
       -2.0896842 -2.4680398 -5.9544497 -2.4504533
000080 ac bd 1e c0 7b 55 43 c0 01 96 03 c0 eb 11 02 c0
       -2.4803267 -3.0520923 -2.0560305 -2.0323436
000090 a0 5b f8 bf fe 14 1f c0 e6 66 fd bf 85 73 12 c0
       -1.9402962 -2.4856563 -1.9797027 -2.2883008
0000a0 d2 49 f9 bf 6a de 0e c0 88 97 22 c0 4f f8 fd bf
       -1.9475653 -2.232325 -2.5404987 -1.9841403
0000b0 d4 fc 7e c0 ba 15 09 c0 43 d5 be c0 1a fb bd c0
       -3.9841814 -2.141951 -5.963533 -5.936902
0000c0 fc c2 27 c0 02 49 bf c0 04 38 01 c0 d6 79 0b c0
       -2.621276 -5.977662 -2.019044 -2.1793113
0000d0 ab 3f 18 c0 1e fa 02 c0 be 32 0c c0 0a 12 25 c0
       -2.378886 -2.046516 -2.190597 -2.579226
0000e0 4c 8e 0b c0 8b 3b f3 bf da 6f f7 bf e8 97 40 c0
       -2.18056 -1.9002546 -1.9331009 -3.0092716
0000f0 40 37 bf c0 f8 c7 07 c0 8a c6 1b c0 16 11 bf c0
       -5.9754944 -2.1215801 -2.4339929 -5.9708357
000100 d3 c1 0b c0 f8 ea bd c0 f1 29 0e c0 29 c6 fb bf
       -2.183705 -5.9349327 -2.22131 -1.9669849
000110 4f 98 04 c0 cd 51 bf c0 a7 5d 0f c0 3a e9 18 c0
       -2.0717962 -5.9787354 -2.240091 -2.389235
000120 ce 7c be c0 cf ef 24 c0 4f 55 be c0 51 12 1b c0
       -5.952735 -2.5771368 -5.9479136 -2.422993
000130 61 96 05 c0 e4 2b 1d c0 de 07 bc c0 a1 56 c0 c0
       -2.0873034 -2.4558039 -5.8759604 -6.010575
000140 e8 d0 28 c0 24 f5 15 c0 28 43 de bf e2 2e f0 bf
       -2.6377506 -2.3430872 -1.7364244 -1.8764307
000150 50 b9 bd c0 5d cd 04 c0 1f 53 be c0 ea cd 25 c0
       -5.928871 -2.0750344 -5.9476466 -2.590693
000160 79 7d bf c0 ef 83 0a c0 35 f7 20 c0 dd ef be c0
       -5.9840665 -2.1643026 -2.5150883 -5.96678
000170 d3 2e bd c0 09 6b 44 c0 ab 65 bf c0 3f 0f 29 c0
       -5.911966 -3.069033 -5.9811606 -2.6415555
000180 cd 2e 09 c0 f2 fb bd c0 c7 2b 11 c0 b2 1d c0 c0
       -2.1434815 -5.937005 -2.268297 -6.003625
000190 cd 49 bf c0 06 12 2c c0 76 f4 be c0 01 30 be c0
       -5.977759 -2.6886 -5.9673414 -5.94336
0001a0 36 d6 be c0 f5 17 16 c0 74 34 bf c0 6f 51 04 c0
       -5.963649 -2.3452122 -5.975153 -2.0674703
0001b0 2e e6 22 c0 ca cc 12 c0 18 0b f7 bf e8 66 e0 bf
       -2.545299 -2.2937493 -1.930026 -1.7531404
0001c0 7b f0 be c0 76 64 22 c0 35 1f 53 c0 44 b3 bf c0
       -5.9668555 -2.5373816 -3.2987797 -5.990633
0001d0 8d 3a 1b c0 dd e2 b5 bf e0 32 c0 c0 7e b5 0e c0
       -2.4254487 -1.4209858 -6.0062103 -2.2298274
0001e0 0c a2 19 c0 ae 60 bf c0 84 c5 06 c0 fa 39 3b c0
       -2.4005156 -5.9805517 -2.1058054 -2.9254136
0001f0 b5 ec f5 bf 68 4a 20 c0 cd ac 05 c0 92 a7 32 c0
       -1.9212862 -2.5045414 -2.088672 -2.7914777
000200 6f c5 bd c0 d0 da 85 c0 73 aa b1 c0 af 0d bc c0
       -5.930351 -4.1829605 -5.552057 -5.8766704
000210 11 27 73 c0 ca 7e 9a c0 5c 90 72 c0 59 3c b7 c0
       -3.7992594 -4.827977 -3.790061 -5.7261167
000220 2f fa be c0 a6 2c 8b c0 a0 e7 54 c0 7b 3d bf c0
       -5.96804 -4.3492002 -3.3266373 -5.976255
000230 2a 67 78 c0 b8 df bd c0 d9 fa 64 c0 23 12 bf c0
       -3.8812966 -5.9335594 -3.5778105 -5.970964
000240 1d 18 94 c0 af 23 8b c0 a9 f1 b6 c0 d6 ea 73 c0
       -4.6279435 -4.348106 -5.7169995 -3.8112082
000250 6d 40 99 c0 03 b9 b0 c0 b1 42 7f c0 09 95 8d c0
       -4.7891145 -5.5225844 -3.9884455 -4.424443
000260 35 7b 90 c0 73 8f 88 c0 92 22 80 c0 c2 e9 73 c0
       -4.51504 -4.267511 -4.00422 -3.8111424
000270 47 e8 86 c0 59 fc 94 c0 b2 ce 73 c0 39 53 c1 c0
       -4.215854 -4.655804 -3.8094907 -6.041409
000280 fd 37 7d c0 bc 47 be c0 f5 c2 54 c0 81 b8 43 c0
       -3.9565423 -5.9462566 -3.3243992 -3.0581362
000290 dd a9 84 c0 d0 b4 92 c0 8b 65 67 c0 f5 9e 6e c0
       -4.1457353 -4.584572 -3.6155727 -3.728452
0002a0 5e 1e ba c0 16 0a 71 c0 75 84 82 c0 f0 d3 6e c0
       -5.816207 -3.7662406 -4.078669 -3.7316856
0002b0 b2 21 84 c0 91 bd 89 c0 13 1b c0 c0 a1 55 bf c0
       -4.129113 -4.3043904 -6.003305 -5.9792027
0002c0 49 df 7b c0 99 9e 7e c0 85 1d 68 c0 1d 93 8a c0
       -3.9355032 -3.97843 -3.6268017 -4.330458
0002d0 96 6c 80 c0 91 a4 42 c0 20 6e 41 c0 78 54 be c0
       -4.013255 -3.0412943 -3.0223465 -5.947811
0002e0 78 a4 84 c0 fe e2 bd c0 d7 b3 74 c0 b2 39 8b c0
       -4.1450768 -5.933959 -3.8234766 -4.350793
0002f0 82 ce 82 c0 96 6f 84 c0 ef 80 7c c0 32 43 b4 c0
       -4.0877085 -4.1386213 -3.9453695 -5.6332026
000300 23 ce be c0 88 ce 11 c0 d5 a1 29 c0 31 b0 ed bf
       -5.962663 -2.2782307 -2.6505024 -1.8569394
000310 21 f3 bf c0 96 89 1b c0 d6 0c 17 c0 f2 dc be c0
       -5.998429 -2.4302726 -2.3601584 -5.964471
000320 88 78 bf c0 b5 b9 26 c0 52 65 bf c0 73 13 bf c0
       -5.9834633 -2.6050847 -5.981118 -5.971124
000330 75 ad be c0 21 e6 bf c0 e0 10 e6 bf 8a b9 e4 bf
       -5.958674 -5.996842 -1.79739 -1.7869122
000340 06 4f 1c c0 57 ca 20 c0 a7 0e f5 bf 28 93 06 c0
       -2.4423232 -2.5123498 -1.9145097 -2.1027317
000350 0f 38 b1 c0 30 e9 bf c0 e1 75 1a c0 4a 6e 1f c0
       -5.538093 -5.9972153 -2.4134448 -2.4911065
000360 14 ff ae c0 0d 4f bf c0 7b a7 09 c0 eb d1 1a c0
       -5.4686375 -5.9783998 -2.1508472 -2.4190624
000370 d8 88 bf c0 a5 bd 1a c0 5d 74 12 c0 8e c4 1c c0
       -5.9854546 -2.417825 -2.2883523 -2.4494967
000380 71 c9 be c0 bf 26 f2 bf 3f 04 f0 bf a1 6e be c0
       -5.96209 -1.8918074 -1.8751296 -5.9510045
000390 12 bf 22 c0 a4 f2 be c0 2d 02 0b c0 ba a7 06 c0
       -2.542912 -5.967119 -2.1720078 -2.1039872
0003a0 63 e9 b7 c0 ba 60 16 c0 b5 84 2c c0 39 1f ed bf
       -5.7472396 -2.3496537 -2.6955998 -1.8525153
0003b0 90 4a bf c0 4a 88 0d c0 ea e2 47 c0 21 02 fb bf
       -5.977852 -2.2114434 -3.1232247 -1.9610025
0003c0 31 ef be c0 b4 dc bf c0 2c 84 17 c0 6e 9b 1a c0
       -5.966698 -5.9956913 -2.3674421 -2.4157367
0003d0 f3 2d c0 c0 42 08 cc bf b5 ca 18 c0 91 ff be c0
       -6.005609 -1.594002 -2.3873723 -5.968697
0003e0 f0 ab 34 c0 ca 48 e3 bf 3a 74 bf c0 fa 30 2b c0
       -2.8229942 -1.7756588 -5.982938 -2.6748643
0003f0 d9 6e 1f c0 bf e3 09 c0 8b 68 2f c0 25 fb 1a c0
       -2.4911406 -2.1545255 -2.7407558 -2.4215786

u_model.layers.1.bias_mu f4 [64]
000000 f6 04 c3 bd a4 0a b2 3d 32 6e c0 3e 29 22 af ba
       -0.095224306 0.08693436 0.37584072 -0.0013361621
000010 79 13 6e 3e 23 8e 87 be 5b a5 82 3a 32 3c e6 ba
       0.23249616 -0.2647563 0.0009967493 -0.0017565547
000020 f9 1d f0 bb b6 7a 33 3a 16 e2 a0 3d 2e 80 95 bd
       -0.007327792 0.00068465935 0.078556225 -0.07299839
000030 64 53 d4 39 a1 b9 d6 3d b9 4b 60 3e 20 cb 71 be
       0.00040497922 0.10484625 0.21903886 -0.23612642
000040 2f e5 9b 3d ad 68 b4 bd 5d 37 00 b9 e5 e4 f3 bd
       0.07612073 -0.08809028 -0.00012227656 -0.119088925
000050 34 40 5c be 64 71 04 3c 9d a8 d4 ba 68 97 4f 3b
       -0.21508867 0.008083675 -0.0016224567 0.0031675939
000060 05 29 90 3e e9 92 00 bb 04 f0 ad 3d 00 9f 9e be
       0.28156295 -0.0019618815 0.08493045 -0.30980682
000070 ce 90 e8 3b 90 fe a5 bd 9c b6 da bd ca 7a 99 bc
       0.00709734 -0.081051946 -0.10679361 -0.018735308
000080 83 9e a6 bd dd c6 89 bd 5f cc 06 be c1 59 1f be
       -0.081357025 -0.06727383 -0.13163899 -0.15561582
000090 b4 f6 70 3d 88 da cb 3d 71 e0 b2 bd ee 4c e1 ba
       0.058829024 0.09953791 -0.08734215 -0.0017189065
0000a0 a5 18 f3 bd 9e 74 80 bd d0 58 ea b9 b4 74 86 b9
       -0.11869935 -0.06272243 -0.00044698128 -0.00025645422
0000b0 a6 79 86 38 ea 8d 9d 39 ad ec 93 bc 57 8a 33 3e
       6.412277e-05 0.00030051108 -0.018057192 0.17533241
0000c0 cc 2c 90 39 1e 72 0c 3a f6 12 bb 3d 1a 4e 72 3a
       0.00027499197 0.0005357581 0.09134476 0.00092432054
0000d0 f0 f6 86 3d c0 41 98 bd 48 79 75 bb f8 92 84 3e
       0.06590068 -0.07434416 -0.0037456322 0.25893378
0000e0 93 95 bf 3d d3 a6 f1 bd a6 cd 89 bc b7 3f 53 39
       0.09354701 -0.11799397 -0.016821694 0.00020146264
0000f0 f3 45 82 bd 78 86 e9 3d fc b8 ef ba 7a 29 e7 bd
       -0.06360998 0.11402601 -0.0018289383 -0.11287208

u_model.layers.1.bias_rho f4 [64]
000000 99 c5 66 c0 0e 54 72 c0 63 c5 ac c0 a9 1c 99 c0
       -3.6058104 -3.7863803 -5.399095 -4.7847486
000010 7e f0 b5 c0 7c e0 a8 c0 66 65 bf c0 09 75 ab c0
       -5.685607 -5.277403 -5.9811277 -5.3580365
000020 9e db 89 c0 ff 89 b7 c0 dd 60 6f c0 39 51 5f c0
       -4.3080587 -5.735595 -3.740287 -3.4893324
000030 63 a8 bf c0 96 35 ae c0 0e ca a9 c0 2b 35 b4 c0
       -5.989305 -5.4440413 -5.305915 -5.63149
000040 e1 9d 82 c0 49 16 ac c0 6e 9a a3 c0 82 a3 63 c0
       -4.0817723 -5.3777204 -5.1126013 -3.5568547
000050 50 a6 a6 c0 b8 f5 81 c0 80 b2 bd c0 18 c4 90 c0
       -5.207802 -4.061245 -5.9280396 -4.523937
000060 1c bd ae c0 62 57 a2 c0 16 ad 87 c0 c2 e4 b5 c0
       -5.4605846 -5.073167 -4.2398787 -5.6841745
000070 9f a8 7f c0 f2 33 6d c0 2f c2 68 c0 6b 09 7f c0
       -3.9946668 -3.7062955 -3.636852 -3.9849498
000080 79 ef 65 c0 8e 01 85 c0 ce e8 9a c0 57 9c ab c0
       -3.5927413 -4.15644 -4.8409185 -5.3628345
000090 9f ee 88 c0 8d ae 68 c0 8d b7 60 c0 68 1f bf c0
       -4.2791286 -3.6356537 -3.511203 -5.972584
0000a0 8c 6f ab c0 4d d2 76 c0 42 e0 a2 c0 a8 04 c0 c0
       -5.3573666 -3.8565857 -5.089875 -6.0005684
0000b0 0e 39 94 c0 42 7e 99 c0 57 5e 7d c0 1d 2d 98 c0
       -4.6319647 -4.7966623 -3.958883 -4.755507
0000c0 3d 75 bd c0 47 19 bf c0 b6 96 5d c0 4e 3d bc c0
       -5.9205613 -5.9718356 -3.4623237 -5.8824835
0000d0 43 73 6a c0 37 ae 59 c0 09 a3 74 c0 f2 17 aa c0
       -3.663285 -3.4012582 -3.8224509 -5.315423
0000e0 25 d7 75 c0 4b 31 9d c0 e8 10 67 c0 d0 fe b7 c0
       -3.8412564 -4.912267 -3.6104069 -5.749855
0000f0 aa 0f a1 c0 6f d1 58 c0 74 d9 7f c0 a8 91 a1 c0
       -5.033162 -3.3877828 -3.9976473 -5.0490303

u_model.layers.2.weight_mu f4 [1, 64]
000000 1c b1 c6 ba f5 4b b5 3b 19 b5 3b be 4a 81 01 bb
       -0.0015158984 0.0055327364 -0.18330802 -0.00197609
000010 44 88 92 be 0e 36 2d be f1 fc 35 3a 3f 57 1c 3e
       -0.28619587 -0.16915151 0.0006942293 0.15267657
000020 ad 45 03 3b be 24 4e bc 5e 62 bc 3b 80 d3 bb ba
       0.0020030544 -0.012582002 0.005749031 -0.001433
000030 bf e1 e2 ba 42 26 0e 3e cf 5d cd 3d ca 8e 13 be
       -0.0017309709 0.13881782 0.10027658 -0.14409938
000040 1e ce 0a 3b 92 a0 17 be ae 4d 30 bb f5 05 46 3b
       0.0021179984 -0.14807346 -0.002690177 0.0030215953
000050 f5 14 86 bd db 56 82 3a 4d 74 7b bb 89 14 1b bc
       -0.06546966 0.0009944098 -0.0038368881 -0.009465345
000060 2f b6 4f be af d4 73 3b af 6b 96 3a 93 d1 ac 3e
       -0.20284341 0.0037205627 0.0011476184 0.33753642
000070 06 db 8d 3b fe 0e 4b 3b 29 58 a7 3b 09 f5 02 3b
       0.004329088 0.0030984278 0.005106945 0.0019982478
000080 ab 9e 19 bb c8 da 2f bc d6 63 c2 3c 2a 51 60 3e
       -0.002344052 -0.010733314 0.023729246 0.21905962
000090 d3 a9 9c ba 80 b0 02 39 3f c3 e3 ba c9 a0 a8 3a
       -0.0011952467 0.00012463517 -0.0017376913 0.00128653
0000a0 90 c4 19 be 8b 09 06 bb c8 83 f9 b9 05 e0 00 39
       -0.15016389 -0.0020452465 -0.00047591166 0.00012290485
0000b0 a3 2d 2a 3b 24 23 3e 3b 04 3a 1f 3b e0 c9 5f 3d
       0.0025967143 0.0029012645 0.0024296055 0.054635882
0000c0 ef 16 37 ba ff 43 15 bc 3a d6 08 3a 9a 9a 15 bc
       -0.00069843134 -0.00911045 0.00052199105 -0.009131098
0000d0 7f 81 e2 3a 1f f4 09 3c 7c 09 b0 bb b0 b7 74 3e
       0.0017281024 0.008420019 -0.0053722244 0.23898196
0000e0 f6 ce 08 bb 48 00 20 3d 04 59 1e ba 7d 18 55 bb
       -0.0020875311 0.03906277 -0.0006040486 -0.0032515817
0000f0 cd 53 10 3e 42 08 27 ba 27 dc de ba 97 aa b9 3d
       0.14094467 -0.0006371775 -0.0017002866 0.090657406

u_model.layers.2.weight_rho f4 [1, 64]
000000 17 d6 b8 c0 db 81 ae c0 cc 9e d5 c0 46 29 ae c0
       -5.776134 -5.4533515 -6.6756344 -5.4425383
000010 50 fb d6 c0 6b fa d5 c0 26 2a b6 c0 f3 24 da c0
       -6.718178 -6.6868186 -5.692645 -6.8170104
000020 31 7e ad c0 92 93 b5 c0 6b 38 b2 c0 49 73 ab c0
       -5.421654 -5.674264 -5.569387 -5.357823
000030 02 80 b7 c0 a7 3e c9 c0 08 ea c8 c0 30 af c4 c0
       -5.734376 -6.288898 -6.2785683 -6.146385
000040 e3 14 ac c0 fa 20 c8 c0 83 b5 b0 c0 67 45 af c0
       -5.3775496 -6.2540255 -5.522157 -5.477222
000050 e4 ce be c0 41 ef b2 c0 01 4e af c0 81 b8 a4 c0
       -5.962755 -5.591706 -5.478272 -5.1475224
000060 c8 60 d8 c0 72 55 b1 c0 5a 0c b6 c0 e7 8a d5 c0
       -6.761814 -5.5416803 -5.6890078 -6.673206
000070 db 4f b0 c0 4d c8 b4 c0 da 28 b0 c0 2a 47 ae c0
       -5.509748 -5.649451 -5.504987 -5.446187
000080 ad e6 b6 c0 b0 aa a8 c0 b7 17 cb c0 c7 2c d8 c0
       -5.7156587 -5.270836 -6.346645 -6.755466
000090 fe 78 b0 c0 23 32 bc c0 ed 86 bb c0 be 95 b4 c0
       -5.5147696 -5.88112 -5.8602204 -5.643279
0000a0 5a 67 d5 c0 37 2e a7 c0 f4 51 c1 c0 48 cb b8 c0
       -6.668866 -5.2243915 -6.041254 -5.7748146
0000b0 14 ef ad c0 11 b0 b5 c0 97 50 bc c0 ff e4 c7 c0
       -5.4354343 -5.6777425 -5.8848376 -6.2467036
0000c0 60 fd ae c0 f1 c2 b8 c0 39 e4 b7 c0 18 2c a7 c0
       -5.4684296 -5.7737966 -5.746609 -5.2241325
0000d0 5f 35 ab c0 d9 f2 b2 c0 d4 96 ab c0 bf b1 d1 c0
       -5.350265 -5.5921445 -5.3621616 -6.5529475
0000e0 69 63 a8 c0 e8 db be c0 da 2a b4 c0 fb 65 a4 c0
       -5.262135 -5.964344 -5.630231 -5.137449
0000f0 03 33 da c0 a9 ec b0 c0 bc bd b4 c0 c0 e3 cc c0
       -6.818727 -5.528889 -5.648161 -6.4028015

exp_avg f4 [64, 6]
000000 31 ca 24 43 19 20 04 c2 7d 85 0e 43 16 96 19 43
       164.78981 -33.031345 142.52144 153.58627
000010 01 f6 98 c3 f3 83 d9 bf ad ea fc c2 bf 90 e6 43
       -305.9219 -1.6993393 -126.45835 461.13083
000020 56 54 72 44 6f b4 16 43 40 46 5c 44 43 52 15 c2
       969.31775 150.70482 881.09766 -37.330334
000030 fe 29 b7 41 77 48 5c c3 08 c4 11 c4 8e 45 82 c2
       22.895504 -220.28307 -583.063 -65.13585
000040 88 82 bf c3 84 ed 8d 42 50 31 05 43 17 d8 21 c2
       -383.01978 70.9639 133.19263 -40.461025
000050 73 a0 2c 42 3b 36 07 c1 61 6d ec 42 c9 4f 11 42
       43.15669 -8.45074 118.21363 36.327915
000060 45 54 23 42 96 e2 be c2 b2 98 35 c3 56 ea 9e c1
       40.832294 -95.44255 -181.59647 -19.864422
000070 37 f6 1a c2 b6 78 ca 42 b0 93 f3 3f fe 1b f2 c2
       -38.740444 101.23576 1.9029446 -121.05467
000080 1c af b7 43 9e ea 52 c2 7b 32 bf c3 cf 8f 77 43
       367.36804 -52.72912 -382.39438 247.56175
000090 cc 06 42 c2 54 44 0a 42 37 c4 0a 43 ba fb ce 41
       -48.506638 34.566727 138.76646 25.872913
0000a0 6c e0 95 42 89 a7 1f 40 01 f7 e5 42 94 92 1d c3
       74.938324 2.4946005 114.98243 -157.57257
0000b0 71 30 c9 c2 fd 34 63 c2 4c dc ce c3 14 16 8e c2
       -100.59461 -56.801746 -413.72107 -71.04312
0000c0 0c 43 84 c0 7b f3 6a 43 57 60 17 43 8a 42 46 c1
       -4.1331844 234.9511 151.37633 -12.391245
0000d0 a0 1e f6 43 33 b8 89 c2 cf 93 3f 43 61 9c 54 c3
       492.23926 -68.859764 191.57738 -212.61086
0000e0 77 00 fb c3 2a a9 a1 c2 17 ae 13 c4 74 49 b3 41
       -502.00363 -80.8304 -590.72015 22.410866
0000f0 82 57 99 c2 12 30 85 43 30 7b b1 43 70 f4 76 41
       -76.67091 266.37555 354.9624 15.434677
000100 c3 df 09 44 29 2c 2d 3f 0b 7e 54 c2 dc a4 62 c1
       551.4963 0.6764551 -53.12309 -14.165249
000110 0b 3d 08 c3 d7 79 8f 41 65 21 af 43 14 14 99 41
       -136.23845 17.934492 350.2609 19.134804
000120 de 9f ec be 80 9c 23 43 77 e9 ed 42 81 e2 b2 41
       -0.4621572 163.61133 118.955986 22.360598
000130 d7 02 46 43 7e 0c 26 c2 e5 a0 53 41 cd 49 a9 c2
       198.0111 -41.5122 13.226781 -84.64414
000140 48 cc dd c2 9c c0 56 41 32 0d 04 43 01 ca 24 c3
       -110.89899 13.422024 132.05154 -164.78908
000150 20 64 f9 42 ba c7 cd c1 fd 0b 14 42 b0 4e 77 41
       124.69556 -25.722523 37.011707 15.456711
000160 c7 e3 8f 42 69 c5 ce 40 c3 69 65 c1 b3 ff a7 c2
       71.94488 6.461598 -14.338321 -83.99941
000170 0c fb 6b c3 36 d3 b8 c1 2a 5e 06 c3 df 40 56 41
       -235.98065 -23.10313 -134.36783 13.390838
000180 f0 91 46 c1 0f 75 06 42 54 b9 e0 43 83 fe 17 3f
       -12.410629 33.614315 449.44788 0.5937273
000190 e7 77 11 c3 a8 2e 29 43 c8 cf 03 43 b3 18 fa c2
       -145.46837 169.18225 131.81165 -125.04824
0001a0 ee 24 ad c2 72 9b 78 c2 a3 89 07 c4 c2 cf 39 43
       -86.57213 -62.151802 -542.1506 185.81155
0001b0 56 e0 b8 42 fd 32 db c2 e1 d5 f9 41 e2 a2 97 c2
       92.438156 -109.59959 31.229433 -75.81813
0001c0 78 fe 45 c3 c1 4e 05 42 d7 44 4b c3 aa 8f f2 42
       -197.99402 33.32691 -203.2689 121.280594
0001d0 3f 24 30 c1 7b 13 ae 42 e6 b1 51 43 cb 74 a2 c1
       -11.008849 87.03805 209.69492 -20.307028
0001e0 f7 f9 f2 40 09 96 c3 42 c6 d2 ac 42 e6 a0 91 c2
       7.5930133 97.79304 86.41167 -72.814255
0001f0 39 ca 88 41 c4 e7 d8 c0 dd 14 e6 c0 17 7e 94 c2
       17.098742 -6.7782917 -7.190047 -74.24627
000200 8f ff 39 42 17 23 ce c1 7d 65 93 41 ab f3 ea c2
       46.49957 -25.767134 18.424555 -117.475914
000210 c6 8c 77 c2 e5 ff d9 c2 e3 9d 9a c3 ad 1c 45 c2
       -61.887474 -108.999794 -309.2335 -49.278004
000220 3b 7c af c3 7b 7c b8 42 4a aa ba 42 f0 59 ef 42
       -350.97055 92.243126 93.332596 119.67566
000230 45 fd 66 41 f1 21 87 41 e4 6c 07 43 73 31 30 42
       14.436833 16.891573 135.42535 44.04829
000240 3d 1f be 41 31 37 ea 41 af e0 15 c4 a2 ec 59 c1
       23.765253 29.276949 -599.5107 -13.620272
000250 ae 7e 79 42 6a 5b 96 c1 3d 6c 13 c3 a6 99 27 c3
       62.37371 -18.794636 -147.4228 -167.60019
000260 a9 37 5f c3 35 36 17 c2 a1 c9 b3 c3 d7 86 e4 42
       -223.21742 -37.802937 -359.57523 114.26336
000270 1d 0f 1d c2 00 fa 58 c3 0b 37 a0 c3 bd 30 fd c0
       -39.26476 -216.97656 -320.43002 -7.9121995
000280 ad 8e fe c3 6f 3b 91 41 e2 61 67 40 68 64 be c2
       -509.11465 18.15402 3.6153493 -95.196106
000290 64 4b da 42 2b e3 09 c2 a7 5b a9 42 27 7f 97 c2
       109.14725 -34.471844 84.67901 -75.748344
0002a0 56 ac 4b c1 9b da e6 42 8f 5a bd 41 14 6b f2 41
       -12.729574 115.42696 23.669218 30.302284
0002b0 99 dc 10 44 d4 e1 02 bf bf db ae 41 0f 1f b0 41
       579.44684 -0.51125836 21.857298 22.015165
0002c0 8f 13 50 42 d9 14 35 c2 22 b6 b5 c3 29 ea ed 42
       52.0191 -45.27036 -363.4229 118.957344
0002d0 4f 9f dc 41 6f 61 6c c3 1c ef 76 c4 b8 ad 34 c3
       27.577787 -236.3806 -987.7361 -180.67859
0002e0 fb cc 0b c4 4b 3f c9 42 fd 30 39 42 ac 91 ac c3
       -559.2028 100.62362 46.29784 -345.13806
0002f0 94 0b 9b c3 37 4d 19 c3 bd 6e 5f c4 55 39 bc 42
       -310.09045 -153.30162 -893.7303 94.11198
000300 02 3c 1b 41 8e 48 d5 c2 47 66 78 43 88 3f 08 41
       9.70215 -106.64171 248.39952 8.515511
000310 f7 e7 ba c2 6a 92 dc 41 29 64 8c c0 8c 88 3e c3
       -93.45306 27.571491 -4.3872266 -190.53339
000320 c8 75 aa 41 38 a6 f3 41 d4 65 4f 42 07 e3 33 41
       21.30751 30.456161 51.84944 11.242927
000330 ac fb 27 c3 ce 93 10 43 fb 36 11 44 18 7e 9c 42
       -167.9831 144.57736 580.8591 78.24628
000340 1f fb cd 43 c4 f0 8c c1 c4 00 ad 42 d5 32 80 43
       411.96188 -17.617561 86.501495 256.39713
000350 52 3d 93 c3 f9 01 9e 42 4a 13 3d c2 a7 e7 1d c1
       -294.47906 79.00385 -47.268837 -9.869056
000360 b4 b5 4c c1 14 87 fd 40 8e de 61 c3 9b 45 10 c2
       -12.794361 7.922739 -225.86935 -36.067974
000370 d1 0c 82 c3 19 18 e9 41 5a b6 3c 42 1d f8 92 c3
       -260.10013 29.136766 47.178078 -293.9384
000380 9b 7d 7a c3 c1 c3 20 c3 62 ca 29 c4 38 2c 3c 42
       -250.49065 -160.76466 -679.16223 47.043182
000390 b0 3c 41 c1 d2 64 34 42 21 4a 28 42 56 df ea 41
       -12.077316 45.098457 42.07239 29.35905
0003a0 e2 e2 42 43 95 9d d5 c1 30 81 31 41 02 e4 27 c3
       194.88626 -26.701944 11.09404 -167.89066
0003b0 a5 34 00 43 ac 9d ce 41 ce a8 e3 42 12 53 50 41
       128.20564 25.826988 113.8297 13.020281
0003c0 d0 5a 1c c1 5f d7 b2 42 3b 0c 7d 43 5c f0 e5 c2
       -9.772171 89.42065 253.04778 -114.96945
0003d0 bf 1a 2e 42 a6 59 05 43 06 e2 17 41 1a a9 67 c3
       43.52612 133.35019 9.4926815 -231.66055
0003e0 b4 64 fe c3 19 2e 11 c3 e1 8f 20 c4 21 df 3a 43
       -508.78674 -145.18007 -642.2481 186.8716
0003f0 25 5f 8e bf 6d d1 9b c2 93 00 42 c3 4a e8 c9 42
       -1.1122786 -77.909035 -194.00224 100.95369
